app/src/main/assets/diet.tflite (tflite, 44988 bytes, 6 tensors)

dense_1/MatMul_bias f4 [100]
0.0 -0.000115193514 -0.0020521686 -0.0012753863 -0.0003760824 0.0 -0.0019981207 -0.0011038847
0.0 0.0 -0.0003458151 0.0 0.0 -0.0013337682 -0.0008166936 -0.0014984792
-0.00029272854 -0.001187328 -0.0022568272 -0.0017325792 -0.0009317702 -0.0015941744 -0.0010679883 -0.0015661415
0.0 -0.000443896 -0.001791844 -0.003505039 -0.00014038576 -0.003919783 -0.00088907 -0.0013834722
-0.0013910793 -0.0009186459 -0.00063963246 -0.0014513673 -0.0009554467 -0.00065927266 0.0 -0.0009209139
-0.00010854062 0.0 -0.0012227306 -0.0017589036 -7.020634e-05 -0.00031554865 0.00025189028 0.0030618391
-0.00020973114 -0.0013551534 -0.000113209186 -3.2473137e-05 -0.0008398307 0.001283294 0.0 -0.0021256655
-0.0013733761 3.5658253e-05 -0.00016900385 0.0 -0.00042649763 -0.000958792 -0.0031506254 0.0
-0.001414867 -0.00036555916 -0.0024763136 -0.0018071142 -0.00021496111 0.0 0.0 -0.0011186912
-0.00060635223 -0.0024661291 -0.00021632064 0.0 -0.0009556844 0.0 -0.00072230626 0.0
-0.00047573342 -0.0022326421 -0.0018491144 0.0 -0.0013635338 -0.00011528438 0.0 -0.0012967134
-0.00083997677 0.00343262 -3.0269994e-05 -0.0005833521 -0.0018785652 -0.0014607558 7.776341e-06 -0.0018695784
-3.1480442e-05 -0.0005703196 -0.0014774782 -0.002532483
00000000: 0000 0000 0c94 f1b8 ad7d 06bb dd2a a7ba
00000010: ed2c c5b9 0000 0000 e7f2 02bb 39b0 90ba
00000020: 0000 0000 0000 0000 844e b5b9 0000 0000
00000030: 0000 0000 d6d1 aeba 6117 56ba 9e68 c4ba
00000040: 5c79 99b9 1ea0 9bba 47e7 13bb b617 e3ba
00000050: 0a42 74ba 9ef3 d0ba befb 8bba fd46 cdba
00000060: 0000 0000 b6ba e8b9 4fdc eaba ccb4 65bb
00000070: 8434 13b9 8671 80bb 7a10 69ba a055 b5ba
00000080: e054 b6ba 48d1 70ba 02ad 27ba ce3b beba
00000090: f176 7aba 0ad3 2cba 0000 0000 7c69 71ba
000000a0: 4da0 e3b8 0000 0000 0844 a0ba 038b e6ba
000000b0: be3b 93b8 3970 a5b9 2410 8439 23a9 483b
000000c0: 46eb 5bb9 679f b1ba b86a edb8 c433 08b8
000000d0: 1628 5cba 3434 a83a 0000 0000 c04e 0bbb
000000e0: db02 b4ba c28f 1538 a036 31b9 0000 0000
000000f0: 8b9b dfb9 7157 7bba b97a 4ebb 0000 0000
00000100: 0f73 b9ba 85a8 bfb9 a649 22bb b1dc ecba
00000110: 2f67 61b9 0000 0000 0000 0000 0ca1 92ba
00000120: 9cf3 1eba c89e 21bb 21d4 62b9 0000 0000
00000130: e586 7aba 0000 0000 2759 3dba 0000 0000
00000140: dc6b f9b9 8551 12bb fc5d f2ba 0000 0000
00000150: 9ab8 b2ba d5c4 f1b8 0000 0000 7bf6 a9ba
00000160: e331 5cba cff5 603b 51ec fdb7 19ec 18ba
00000170: 303a f6ba d576 bfba 2177 0237 a40c f5ba
00000180: de09 04b8 8081 15ba f1a7 c1ba 04f8 25bb

dense_1/kernel/transpose f4 [100, 5]
0.092049345 -0.14124572 -0.17131594 -0.106100455 0.17352344 0.17954513 -0.22392774 0.05500174
0.060792413 -0.17647968 0.15443078 -0.09639576 0.011668065 0.059794936 -0.0018987554 0.115127034
-0.17034644 0.13976038 0.20101884 -0.1452395 0.23674256 -0.20418644 0.10137458 -0.17736396
0.04349796 0.11317192 -0.20604801 0.031257495 -0.23473187 0.15052263 0.16006683 -0.054470975
0.020947643 0.10038652 -0.04309301 0.19380298 -0.013961807 -0.14954251 0.10545735 -0.094832584
0.022701725 -0.078018785 -0.078465655 0.11944856 0.024525419 -0.19407412 -0.23472777 0.0041214973
-0.116438344 -0.19794407 -0.21406826 0.055536415 -0.24091966 0.16663595 -0.21684149 -0.2017965
-0.22543456 -0.16579753 0.1294304 0.17246206 0.01415886 -0.13648927 0.012148842 -0.07428934
0.11050819 -0.069803216 -0.124610975 0.04728501 0.17618698 0.025389684 -0.063364506 0.0474936
-0.2842486 -0.030234965 0.19236425 0.023583349 -0.067288846 -0.07717691 -0.093909025 0.15411496
0.1915979 -0.24772127 0.10210271 -0.23299088 0.09635742 -0.19965537 -0.13406892 0.05562206
0.07716885 0.0029428182 -0.24534003 -0.0042170733 -0.19599561 -0.2859956 0.09776199 -0.21072607
-0.08403474 0.1332795 -0.20993458 0.15946688 -0.044511065 -0.04984086 -0.037066158 -0.22602685
0.0017365515 0.04865264 0.06510185 -0.025330158 -0.28168464 -0.13316922 -0.18564412 0.016558822
-0.16798018 -0.059163414 0.085526854 -0.21168412 0.019896757 -0.1151372 0.14466918 -0.24207193
-0.22737579 -0.12434874 -0.07086936 -0.19268219 0.07845108 -0.049353413 -0.08255868 -0.048841834
-0.0015348545 0.17728515 -0.17994517 -0.0038004017 -0.002702536 0.16573642 -0.22995538 0.0029718694
-0.004420258 0.13850702 -0.24475627 -0.07012615 0.101215154 -0.050622884 0.031079115 -0.17347729
-0.12872025 0.02451906 0.22384828 -0.2131679 -0.121235676 -0.14025477 0.1753962 0.07621943
-0.13862233 -0.0653489 -0.25683945 -0.041792534 -0.06469734 -0.05318737 -0.15701796 -0.081381835
0.10129949 -0.12844749 0.046562072 0.14486898 -0.21612957 -0.05641519 0.055611677 -0.1755319
0.01864191 -0.06285409 -0.20472646 -0.03129286 0.002703718 0.08081211 -0.12083539 0.069018826
-0.04276316 0.019064829 -0.093820095 -0.25280884 -0.17652667 -0.20328456 0.036419347 0.1849572
-0.09147653 0.029156104 -0.28130513 0.050427306 0.16614838 0.06957908 0.22429504 -0.13425457
-0.039789677 -0.10552254 -0.048136517 0.0077836206 -0.050359916 0.11360157 -0.07169104 -0.082710415
0.033467937 -0.03073661 -0.10180964 0.20899832 -0.08508039 -0.09558144 -0.18765274 -0.03969729
0.19321714 -0.16703178 -0.10807636 -0.05992148 -0.13037963 -0.12640178 0.17196608 -0.2119403
0.018078342 -0.27040362 -0.01721102 -0.10422474 -0.09680095 -0.08480634 0.028589023 -0.16199175
-0.09276303 -0.18550953 0.12411794 -0.13848399 -0.21604657 -0.07254741 0.21363191 -0.05159249
-0.13066183 0.22035483 0.0007501653 -0.22023652 0.16039053 -0.14221142 -0.041821577 -0.023191951
-0.00985915 -0.21737371 0.05625642 0.10416795 0.16354005 -0.144197 -0.073207274 0.02101592
-0.1266726 0.13543269 0.22701523 0.06487439 -0.23630118 0.18370277 0.04550245 -0.23192859
00000000: 5e84 bc3d b8a2 10be 726d 2fbe 324b d9bd
00000010: 21b0 313e aeda 373e 504d 65be 8149 613d
00000020: 7701 793d 17b7 34be 1a23 1e3e 246b c5bd
00000030: 692b 3f3c 89eb 743d a9df f8ba b9c7 eb3d
00000040: 4c6f 2ebe 581d 0f3e e2d7 4d3e aab9 14be
00000050: a46c 723e 4016 51be 7a9d cf3d e69e 35be
00000060: eb2a 323d aec6 e73d 40fe 52be dc07 003d
00000070: 8d5d 70be 9b22 1a3e 8fe8 233e f51c 5fbd
00000080: 649a ab3c 7397 cd3d 4c82 30bd 4a74 463e
00000090: 10c0 64bc ac21 19be 06fa d73d 9637 c2bd
000000a0: f8f8 b93c 50c8 9fbd 9ab2 a0bd 72a1 f43d
000000b0: 88e9 c83c 5ebb 46be 7a5c 70be a00d 873b
000000c0: 3a77 eebd dab1 4abe b634 5bbe 277a 633d
000000d0: a5b3 76be 9da2 2a3e b20b 5ebe bea3 4ebe
000000e0: 51d8 66be d4c6 29be 6789 043e e599 303e
000000f0: 90fa 673c d8c3 0bbe f00b 473c 0225 98bd
00000100: 1e52 e23d fdf4 8ebd 0a34 ffbd edad 413d
00000110: 5c6a 343e 07fe cf3c 40c5 81bd a688 423d
00000120: 0889 91be 51af f7bc 22fb 443e de31 c13c
00000130: bcce 89bd ee0e 9ebd 6053 c0bd 50d0 1d3e
00000140: 3d32 443e a5aa 7dbe 3a1b d13d 2995 6ebe
00000150: 0a57 c53d 7572 4cbe 5d49 09be f5d3 633d
00000160: b40a 9e3d 4cdc 403b 6b3a 7bbe 602f 8abb
00000170: 13b3 48be 046e 92be 7037 c83d 93c8 57be
00000180: 681a acbd 6c7a 083e 17f9 56be 494b 233e
00000190: 3c51 36bd ee25 4cbd afd2 17bd 9573 67be
000001a0: 009d e33a fe47 473d 1e54 853d 3181 cfbc
000001b0: f838 90be 835d 08be 7e19 3ebe 5ea6 873c
000001c0: ff02 2cbe 5655 72bd b428 af3d b9c3 58be
000001d0: 86fe a23c 0dcd ebbd 2824 143e b4e1 77be
000001e0: 33d5 68be 8daa febd f423 91bd 7b4e 45be
000001f0: f6aa a03d ce26 4abd 8614 a9bd 600e 48bd
00000200: 2c2d c9ba 3d8a 353e 8c43 38be 2910 79bb
00000210: 081d 31bb cfb6 293e 6c79 6bbe b2c3 423b
00000220: d0d7 90bb c9d4 0d3e 63a1 7abe 4d9e 8fbd
00000230: e449 cf3d f159 4fbd a199 fe3c 08a4 31be
00000240: 3ecf 03be 32dc c83c 7c38 653e b048 5abe
00000250: 694a f8bd f29e 0fbe 109b 333e ef18 9c3d
00000260: 03f3 0dbe a5d5 85bd 7680 83be a62e 2bbd
00000270: 0a80 84bd 00db 59bd 51c9 20be 85ab a6bd
00000280: 1b76 cf3d bd87 03be dfb7 3e3d 8958 143e
00000290: 1251 5dbe 9d13 67bd 12c9 633d a2be 33be
000002a0: ebb6 983c a5b9 80bd d0a3 51be f12c 00bd
000002b0: dc30 313b d280 a53d 8c78 f7bd be59 8d3d
000002c0: 6c28 2fbd d82d 9c3c c024 c0bd 2970 81be
000002d0: 68c3 34be d429 50be 742c 153d 6c65 3d3e
000002e0: 0c58 bbbd c8d8 ee3c 3a07 90be dd8c 4e3d
000002f0: cd22 2a3e 7a7f 8e3d 99ad 653e 087a 09be
00000300: 80fa 22bd 341c d8bd cc2a 45bd be0d ff3b
00000310: 3346 4ebd f1a7 e83d c1d2 92bd 1464 a9bd
00000320: ad15 093d 58cb fbbc 9381 d0bd a803 563e
00000330: a13e aebd 34c0 c3bd 0a28 40be a099 22bd
00000340: b7da 453e 610a 2bbe 2357 ddbd 3a70 75bd
00000350: 3d82 05be 786f 01be e017 303e e106 59be
00000360: 0819 943c 5872 8abe 20fe 8cbc c873 d5bd
00000370: 943f c6bd f2ae adbd 8733 ea3c 2ae1 25be
00000380: 8bfa bdbd 36f6 3dbe 8c31 fe3d bfce 0dbe
00000390: 503b 5dbe bd93 94bd 53c2 5a3e a652 53bd
000003a0: 37cc 05be b2a4 613e bea6 443a af85 61be
000003b0: 6a3d 243e df9f 11be 1a4d 2bbd 0cfd bdbc
000003c0: 4688 21bc 3797 5ebe 226d 663d 0256 d53d
000003d0: 0b77 273e 61a8 13be b2ed 95bd 9429 ac3c
000003e0: 76b6 01be deae 0a3e ae76 683e dddc 843d
000003f0: f0f8 71be 941c 3c3e c760 3a3d b07e 6dbe

dense_2/MatMul_bias f4 [100]
-1.4260154e-05 -0.001147383 0.0002770923 -0.0011552208 0.0010492512 -0.0031095324 -0.0041411566 -0.0012638172
-0.00039520627 -0.00042105923 0.014892567 -2.573934e-05 -0.002659851 -2.6041878e-05 -0.004984504 -0.0030898235
-0.00063232315 0.0065064467 -0.00092543085 -0.0015241709 0.00025173114 0.0045597195 -0.00024480146 4.3772787e-05
0.0010587174 -0.0003333172 0.00070378656 -4.4283115e-05 0.0012242369 -0.00057816796 -0.0019710786 -0.0001814262
-0.0024402007 3.089306e-05 -0.0056209587 -0.00089961244 -0.002755564 0.0036245622 -0.00025073384 -0.0016274253
-0.00049574627 -0.0028609596 -0.00073684065 -0.006801604 0.0160093 -0.00051216857 -0.0004340273 -0.00010975305
0.012134987 -3.1398828e-05 -0.0005016575 -0.0018842249 0.0011968934 -0.0011606456 0.002603638 -0.0015176032
0.015956044 -0.0005685175 0.015232399 0.005173177 -0.00086586416 0.0008604657 -0.002599953 0.0007815651
-0.001594856 -0.00061874336 -0.001529978 -0.003906363 -0.001825003 -0.00223765 -0.014548849 -0.0020065212
0.0003214428 -0.004449682 -0.00038858294 -0.0015675039 -0.0012055404 -0.0010386095 0.0039709606 -0.0007533883
0.0015991249 -0.00013668674 -0.0013769736 -0.0019007147 -0.004194269 -0.0008411324 -0.0008715785 0.002103956
-0.00083204586 -0.0008578155 -0.016390616 -0.0017874866 -0.0015956786 -0.0058725746 -0.0010517602 0.002549366
-0.0010056386 -0.002953194 0.001475799 0.002097755
00000000: e53e 6fb7 c963 96ba b346 9139 c76a 97ba
00000010: 0787 893a 4cc9 4bbb 8ab2 87bb aba6 a5ba
00000020: b033 cfb9 9dc1 dcb9 f4ff 733c d0ea d7b7
00000030: e550 2ebb 8274 dab7 0d55 a3bb a37e 4abb
00000040: 7dc2 25ba 0834 d53b 9d98 72ba b0c6 c7ba
00000050: c8fa 8339 b369 953b b258 80b9 ac98 3738
00000060: a9c4 8a3a 14c1 aeb9 517e 383a a2bc 39b8
00000070: 9376 a03a 3290 17ba 362d 01bb 3a3d 3eb9
00000080: c6eb 1fbb 2c93 0138 0530 b8bb f8d3 6bba
00000090: b196 34bb 108a 6d3b ed74 83b9 554f d5ba
000000a0: f8f4 01ba f07e 3bbb 8a28 41ba fddf debb
000000b0: ef25 833c 0d43 06ba 288e e3b9 382b e6b8
000000c0: d3d1 463c 3cb2 03b8 aa81 03ba 19f8 f6ba
000000d0: 14e1 9c3a ce20 98ba cca1 2a3b 50ea c6ba
000000e0: 40b6 823c 9008 15ba 5091 793c c183 a93b
000000f0: 29fb 62ba e090 613a f963 2abb f2e1 4c3a
00000100: 7d0a d1ba 2a33 22ba 8b89 c8ba f300 80bb
00000110: f034 efba 8aa5 12bb 4c5e 6ebc d77f 03bb
00000120: 5387 a839 a3ce 91bb b8ba cbb9 b474 cdba
00000130: 3903 9eba f421 88ba d51e 823b 087f 45ba
00000140: ba99 d13a 9153 0fb9 917b b4ba 6721 f9ba
00000150: 1470 89bb 717f 5cba a57a 64ba 86e2 093b
00000160: a71d 5aba 06df 60ba 9d45 86bc 194a eaba
00000170: 1726 d1ba ba6e c0bb 37db 89ba 4413 273b
00000180: a2cf 83ba 608a 41bb 996f c13a 7d7a 093b

dense_2/kernel/transpose f4 [100, 100]
-0.16065654 0.13271135 -0.06530035 0.047335275 0.099471174 0.114829004 -0.015302323 -0.13506684
0.17244416 0.08537108 -0.105825365 0.08126393 -0.134882 0.0978518 0.15890844 0.0920017
0.08148435 0.05265743 0.014602008 0.0932859 -0.071956195 -0.10245376 0.091696665 -0.15592873
0.020210579 0.028964838 -0.040872276 -0.054692466 0.081108086 0.0129893925 0.1678906 -0.09727752
0.10265461 -0.1680051 0.005465269 -0.041714452 -0.12931477 -0.077469 0.023556411 0.023405565
0.085612826 0.054418087 -0.10523801 -0.13426024 0.07759574 0.022994658 -0.07565512 -0.12795375
0.15097426 -0.16966218 0.008999384 -0.14223096 -0.029644357 -0.03740547 0.15009701 0.037743203
-0.039446097 -0.15184724 -0.1435652 0.05607015 0.06756081 0.080428116 0.1738781 0.06704636
-0.15748784 -0.0015894562 0.119202726 0.15118147 0.13574892 0.0089055 -0.047162965 -0.1020403
-0.10064356 -0.079790905 0.1155659 0.023335442 0.09462198 0.16084027 -0.012871042 0.036313653
-0.10605769 -0.05783078 0.043398146 -0.16372009 -0.030333126 -0.09838939 0.15680277 0.048706826
0.07640337 -0.14614637 0.029509483 -0.09188146 0.075104244 0.1441527 -0.06439954 0.01323013
-0.08669991 0.038273674 0.036769066 0.1291854 -0.062078618 -0.12075582 -0.05469586 0.014867064
0.045601144 0.047389388 0.09480476 -0.0072965682 -0.07282568 0.16390762 0.11226015 0.052262098
-0.10808126 -0.10602552 -0.15975085 0.040312313 -0.13700756 -0.005104116 -0.12453887 -0.17461096
0.11807111 -0.0034753475 -0.018800635 0.14512703 -0.013627738 -0.03882645 0.09848158 -0.101147644
0.054397844 0.04955576 0.014824454 -0.11177389 0.10317582 0.07007714 -0.017676806 0.08016612
0.0503015 0.03043548 0.11021796 -0.0025605485 0.10944426 0.0019236654 0.061141536 0.021913454
-0.054621063 0.08288502 0.10845945 -0.184874 -0.016080912 -0.019437702 -0.046193663 -0.11821298
-0.13077827 -0.029756835 0.1717102 0.03608483 0.06342737 0.14507405 0.15491475 -0.09800517
0.030961167 0.1512716 -0.011943169 -0.033615366 0.011962565 -0.016387623 0.12222561 0.04724077
0.033146992 0.16295487 -0.11980681 0.0800516 -0.10829344 -0.029032266 0.1557054 0.008694887
0.15584333 -0.17177196 -0.14866032 -0.0053302348 0.12348148 -0.049057107 0.016190328 0.066047505
-0.17397748 -0.048669904 -0.07598766 0.13600619 0.09702141 -0.06783566 -0.12331738 -0.0870529
-0.1641062 0.009702304 -0.16338076 0.13688911 0.06192892 0.035836704 -0.021230202 0.03290483
0.0033018887 -0.050586216 -0.014250365 0.11571282 -0.07791272 -0.0055014044 -0.12268463 0.066512816
0.14199069 0.10245651 0.08261652 -0.12734771 -0.12473508 0.0616208 0.15931392 0.011035219
-0.14883307 -0.056876995 0.11009449 -0.08820617 0.030181706 -0.15837973 -0.05771273 0.058234077
0.00553596 0.040680185 -0.16528356 -0.02820812 -0.03445882 -0.09265854 -0.0025236614 -0.10143569
-0.15091528 -0.09538259 -0.11914857 0.1312362 -0.09679926 0.057926673 -0.115149826 0.1830414
-0.08143288 -0.039934173 -0.09944885 0.16781217 -0.09727448 0.12640637 0.0061619193 0.10828624
0.004428497 -0.045215756 0.029020758 -0.14080591 -0.06757361 -0.13257167 -0.16962035 -0.07962974
00000000: 2683 24be 7ce5 073e 31bc 85bd a2e2 413d
00000010: 8bb7 cb3d 782b eb3d 98b6 7abc f64e 0abe
00000020: 3495 303e 08d7 ae3d f8ba d8bd b46d a63d
00000030: 821e 0abe 8666 c83d e5b8 223e 636b bc3d
00000040: 44e1 a63d 51af 573d 433d 6f3c ae0c bf3d
00000050: c55d 93bd 47d3 d1bd 76cb bb3d c8ab 1fbe
00000060: a890 a53c ab47 ed3c b069 27bd 3505 60bd
00000070: ff1b a63d 76d1 543c 83eb 2b3e 7039 c7bd
00000080: 953c d23d 8709 2cbe 0016 b33b c6dc 2abd
00000090: 176b 04be 11a8 9ebd 60f9 c03c 07bd bf3c
000000a0: c755 af3d 80e5 5e3d 0787 d7bd 847b 09be
000000b0: 84ea 9e3d 4b5f bc3c 12f1 9abd 4f06 03be
000000c0: ff98 1a3e ecbb 2dbe 2772 133c fea4 11be
000000d0: b9d8 f2bc 7a36 19bd 08b3 193e 9e98 1a3d
000000e0: 3b92 21bd d87d 1bbe c102 13be d0a9 653d
000000f0: 525d 8a3d 7fb7 a43d 1a0d 323e 9a4f 893d
00000100: 7e44 21be 4d55 d0ba 8f20 f43d 51cf 1a3e
00000110: c401 0b3e 60e8 113c f42d 41bd 81fa d0bd
00000120: 361e cebd 6a69 a3bd d1ad ec3d f829 bf3c
00000130: 2bc9 c13d 50b3 243e 10e1 52bc a0bd 143d
00000140: c634 d9bd f8df 6cbd 41c2 313d 3da6 27be
00000150: 2d7d f8bc 6080 c9bd e890 203e cf80 473d
00000160: 5f79 9c3d 65a7 15be dfbd f13c 592c bcbd
00000170: 41d0 993d c49c 133e e8e3 83bd 30c3 583c
00000180: b98f b1bd dbc4 1c3d 299b 163d 2d49 043e
00000190: 2646 7ebd d44e f7bd c408 60bd fc94 733c
000001a0: 44c8 3a3d 601b 423d ff28 c23d 0d18 efbb
000001b0: a125 95bd 66d7 273e a6e8 e53d c810 563d
000001c0: b559 ddbd e823 d9bd ba95 23be 861e 253d
000001d0: b64b 0cbe 6e40 a7bb 3c0e ffbd 37cd 32be
000001e0: 44cf f13d a8c2 63bb ca03 9abc 2e9c 143e
000001f0: e046 5fbc 7c08 1fbd b6b0 c93d 7f26 cfbd
00000200: 46d0 5e3d fbfa 4a3d 44e2 723c b6e9 e4bd
00000210: d84d d33d 9b84 8f3d f3ce 90bc 222e a43d
00000220: f208 4e3d d453 f93c f4b9 e13d e0ce 27bb
00000230: 5024 e03d 8023 fc3a 8c6f 7a3d d883 b33c
00000240: 56ba 5fbd 9fbf a93d fd1f de3d 9c4f 3dbe
00000250: 1ebc 83bc d13b 9fbc 9135 3dbd a619 f2bd
00000260: bdea 05be 9bc4 f3bc ccd4 2f3e b0cd 133d
00000270: 35e6 813d 4b8e 143e f9a1 1e3e efb6 c8bd
00000280: 46a2 fd3c f1e6 1a3e 48ad 43bc 44b0 09bd
00000290: a2fe 433c 563f 86bc 6c51 fa3d 8a7f 413d
000002a0: 24c5 073d a4dd 263e 465d f5bd 18f2 a33d
000002b0: f3c8 ddbd 13d5 edbc 3d71 1f3e 0075 0e3c
000002c0: 6595 1f3e fde4 2fbe 693a 18be 40a9 aebb
000002d0: dce3 fc3d 1bf0 48bd 94a1 843c ea43 873d
000002e0: 2727 32be 185a 47bd 6b9f 9bbd 3545 0b3e
000002f0: 29b3 c63d 6ced 8abd d38d fcbd ca48 b2bd
00000300: 750b 28be 6af6 1e3c 494d 27be a92c 0c3e
00000310: 2ea9 7d3d 82c9 123d f6ea adbc 37c7 063d
00000320: 8064 583b 7e33 4fbd 5d7a 69bc d8fa ec3d
00000330: b490 9fbd 2045 b4bb 1442 fbbd df37 883d
00000340: 0266 113e b8d4 d13d da32 a93d 7067 02be
00000350: 1b75 ffbd 1866 7c3d 3023 233e 10cd 343c
00000360: b267 18be daf7 68bd 3879 e13d 70a5 b4bd
00000370: a03f f73c 4c2e 22be 2f64 6cbd db86 6e3d
00000380: 0067 b53b 44a0 263d 1840 29be b714 e7bc
00000390: b124 0dbd c3c3 bdbd 0364 25bb 84bd cfbd
000003a0: 8989 1abe f357 c3bd 2a04 f4bd c862 063e
000003b0: b13e c6bd 8544 6d3d acd3 ebbd 346f 3b3e
000003c0: 48c6 a6bd 0492 23bd d7ab cbbd f4d6 2b3e
000003d0: d837 c7bd ac70 013e ede9 c93b 2dc5 dd3d
000003e0: ed1c 913b 2834 39bd f1bc ed3c 6d2f 10be
000003f0: 0864 8abd dec0 07be f5b0 2dbe eb14 a3bd

dense_3/MatMul_bias f4 [2]
0.12076431 -0.12076432
00000000: 4753 f73d 4953 f7bd

dense_3/kernel/transpose f4 [2, 100]
0.17154709 -0.016624374 -0.051700242 0.22246733 0.17850965 -0.017294388 -0.019475758 0.21998675
0.14144506 -0.00081242376 0.11065875 0.0656075 -0.14410228 0.06424137 -0.12885621 0.016143164
0.09928803 -0.047439642 -0.13000801 -0.0076583168 0.20364356 0.23275869 0.16520835 0.04662749
-0.06558626 -0.072052106 0.16344073 0.06716907 0.034848243 0.21797659 0.2194996 -0.14418018
0.03539222 0.20496136 0.018083781 -0.034595653 -0.17396736 0.18087582 0.008379123 0.063976
0.07446804 -0.09885631 -0.07049114 0.0970733 0.14494488 -0.0250768 -0.18108468 0.133232
0.009914258 0.025537862 -0.15321408 0.20637429 -0.018582776 0.027003367 0.10975304 0.018314337
0.22640973 0.048493657 0.00075989455 0.16183004 -0.007449724 0.18306933 0.09698394 0.13552345
0.061363924 -0.034213156 -0.048312545 -0.21080105 -0.006132068 0.12890632 -0.18607317 0.06478806
0.03279292 -0.18595989 -0.018879844 0.09679024 0.057156593 0.011651615 0.17432112 -0.0378888
-0.1016288 0.037078403 0.097535126 0.18250096 0.058190998 0.04078305 0.119261615 0.11054792
0.0558762 0.04941939 -0.10280416 -0.21067867 0.008810711 -0.05804572 -0.15669198 0.09944791
0.10696698 -0.08149024 -0.024918076 0.07380488 0.1197022 -0.21792883 -0.21911357 -0.23113881
-0.047917206 0.028521046 0.037761062 -0.2162837 0.04441335 -0.0979565 -0.17460774 0.02083202
-0.063260235 0.033082046 -0.09884024 0.06192846 0.089655325 -0.16383009 -0.14152586 -0.18598694
-0.11206971 -0.14524241 -0.02368328 0.09038454 -0.0989888 -0.07170874 -0.13442194 -0.0066430746
-0.061561406 -0.14222123 0.046117656 -0.05224555 0.08745813 -0.13824327 0.11875629 -0.19290839
-0.009391746 0.06625041 0.0034212195 0.03801356 0.044147316 0.08477623 -0.25691313 0.17330061
-0.120765194 -0.13225232 -0.14614975 0.10895527 -0.110529825 -0.185334 -0.13782422 -0.2265182
-0.23359065 -0.16676043 0.03815579 -0.12936623 -0.040574767 0.063955165 -0.15490782 -0.04480678
0.10465788 0.15628634 0.15169616 -0.012594089 0.14981875 -0.06129864 -0.29230177 -0.07949266
-0.15426205 -0.06718163 0.019311396 -0.17247854 -0.16012207 0.13698097 0.044869315 -0.13115764
-0.028668342 -0.14537184 -0.002934499 -0.066898555 -0.10636077 -0.074897595 0.102796115 -0.1572342
0.102392286 0.11158582 0.13687944 -0.17638844 0.070062324 0.09334594 0.19229142 0.043477915
0.043742247 -0.014843134 -0.2620229 0.07670399 0.1495936 0.01604431 -0.04558235 -0.09448779
00000000: 0aaa 2f3e d72f 88bc a2c3 53bd 7ace 633e
00000010: 3ccb 363e f6ac 8dbc a08b 9fbc 3544 613e
00000020: f9d6 103e d6f8 54ba 0ea1 e23d 3a5d 863d
00000030: 8c8f 13be fb90 833d e2f2 03be ab3e 843c
00000040: 8657 cb3d 1250 42bd d220 05be 9ef2 fabb
00000050: f087 503e 4b58 6e3e 612c 293e 78fc 3e3d
00000060: 1752 86bd 0e90 93bd 025d 273e f08f 893d
00000070: 08bd 0e3d 4135 5f3e 81c4 603e f8a3 13be
00000080: 6ff7 103d 64e1 513e 7024 943c 2cb4 0dbd
00000090: 8024 32be 8337 393e 9748 093c d905 833d
000000a0: b382 983d 2d75 cabd a95d 90bd 5ece c63d
000000b0: 6e6c 143e dc6d cdbc 436e 39be f86d 083e
000000c0: 696f 223c c734 d13c 27e4 1cbe c853 533e
000000d0: e83a 98bc 2a36 dd3c 34c6 e03d f307 963c
000000e0: f4d7 673e 49a1 463d a933 473a c6b6 253e
000000f0: d01c f4bb 8776 3b3e 849f c63d a9c6 0a3e
00000100: bd58 7b3d 1823 0cbd 60e3 45bd 3bdc 57be
00000110: 84ef c8bb 0500 043e f789 3ebe 9aaf 843d
00000120: de51 063d 456c 3ebe e7a9 9abc f639 c63d
00000130: 081d 6a3d 6ae6 3e3c 3c81 323e 4931 1bbd
00000140: c322 d0bd 86df 173d 7fc0 c73d 88e1 3a3e
00000150: af59 6e3d 210c 273d 6f3f f43d f366 e23d
00000160: 71de 643d fc6b 4a3d fd8a d2bd 26bc 57be
00000170: cd5a 103c 59c1 6dbd dd73 20be 59ab cb3d
00000180: 8111 db3d 5be4 a6bd fe20 ccbc 0327 973d
00000190: 6d26 f53d bc28 5fbe 4f5f 60be a7af 6cbe
000001a0: d544 44bd f8a4 e93c 58ab 1a3d 7979 5dbe
000001b0: c6ea 353d 6b9d c8bd 5fcc 32be eaa7 aa3c
000001c0: 958e 81bd 0a81 073d c06c cabd b2a8 7d3d
000001d0: 369d b73d 13c3 27be 28ec 10be 5c73 3ebe
000001e0: ce84 e5bd 6dba 14be 7003 c2bc 881b b93d
000001f0: a4ba cabd 08dc 92bd e8a5 09be 26ae d9bb
00000200: d027 7cbd 71a2 11be dee5 3c3d 6eff 55bd
00000210: 401d b33d a58f 0dbe 7f36 f33d c789 45be
00000220: d6df 19bc 4cae 873d 8a36 603b 1bb4 1b3d
00000230: d1d3 343d 299f ad3d 1e8a 83be b775 313e
00000240: be53 f7bd 276d 07be 48a8 15be f123 df3d
00000250: 765d e2bd 32c8 3dbe cb21 0dbe 63f4 67be
00000260: 6332 6fbe 3fc3 2abe 3f49 1c3d 9578 04be
00000270: ba31 26bd edfa 823d 28a0 1ebe 5087 37bd
00000280: df56 d63d 8709 203e 3d56 1b3e 7057 4ebc
00000290: 166a 193e 4814 7bbd 94a8 95be 0ccd a2bd
000002a0: dff6 1dbe 8696 89bd ef32 9e3c 379e 30be
000002b0: 0af7 23be bd44 0c3e e3c8 373d 304e 06be
000002c0: dfd9 eabc 5bdc 14be b950 40bb 1c02 89bd
000002d0: add3 d9bd e963 99bd c586 d23d 0102 21be
000002e0: 0cb3 d13d 1b87 e43d 202a 0c3e 2c9f 34be
000002f0: d67c 8f3d 282c bf3d 0be8 443e e615 323d
00000300: 122b 333d 9e30 73bc de27 86be fb16 9d3d
00000310: 112f 193e 5b6f 833c 8fb4 3abd d082 c1bd
