app/src/main/assets/heart.tflite (tflite, 36788 bytes, 6 tensors)

dense_1/MatMul_bias f4 [75]
0	0x3b808bc3	0.003922911
1	0xbad5e3ae	-0.0016318464
2	0x3af5f7a8	0.0018765824
3	0xbb7ccb8d	-0.0038573474
4	0x3a3187db	0.0006772258
5	0x3b84e05e	0.004055067
6	0x3b0cd2e9	0.0021488017
7	0xbc92747b	-0.017877808
8	0x3ba7bf33	0.0051192283
9	0xbc09dc8a	-0.008414397
10	0x3b91b2e0	0.0044463724
11	0xbbc36104	-0.005962493
12	0x3b09cbc7	0.0021026002
13	0xbba4f299	-0.0050338027
14	0x3a97d66f	0.0011584292
15	0x39ccf814	0.00039094745
16	0x3a81a377	0.0009890635
17	0xbb8cab84	-0.004292907
18	0x3c673e5e	0.014113991
19	0x3c137733	0.009000587
20	0xb96604c5	-0.00021936286
21	0xbc95e592	-0.018297944
22	0xbbec497e	-0.0072109094
23	0x3d0a2759	0.03372893
24	0x3ad6d5fd	0.0016390678
25	0x3a46af1e	0.0007579195
26	0x3d424a83	0.04743434
27	0xba35fea0	-0.0006942544
28	0xbc01a11a	-0.007911945
29	0x3cae9155	0.021309534
30	0xbbaf46e2	-0.005349026
31	0xbc4a4f39	-0.01234799
32	0x3c749f5f	0.014930575
33	0xba42eb1c	-0.0007435547
34	0x3ce8fffc	0.028442375
35	0x3c4d2da0	0.012523085
36	0x3adb7ff5	0.0016746508
37	0x3ac6dc04	0.0015171771
38	0xbb9b970c	-0.004748231
39	0xbad56ff5	-0.0016283976
40	0xbac15da2	-0.0014752636
41	0x3cb9789a	0.022640515
42	0x3ba53c24	0.0050425697
43	0x00000000	0.0
44	0xb9897422	-0.00026217202
45	0x3b8d1afb	0.004306195
46	0xbb2303aa	-0.002487401
47	0xbbf29573	-0.0074030696
48	0x3b825fd0	0.003978707
49	0x3bd13260	0.006384179
50	0x3c25696e	0.010095937
51	0x3c3d7e27	0.011565722
52	0x3b7bb17a	0.0038405345
53	0x3bbb1ed1	0.0057104607
54	0xbb0aa4cb	-0.0021155353
55	0x3c487321	0.01223448
56	0xbbb34502	-0.005470873
57	0x3ac2b006	0.0014853484
58	0x3c86c3ce	0.016450789
59	0x00000000	0.0
60	0x3c0ccc7d	0.008593676
61	0xba886f23	-0.0010409098
62	0xb9c211ba	-0.0003701577
63	0x3a9fdc1c	0.0012196335
64	0x3b0e040c	0.0021669893
65	0x3a3867dc	0.0007034519
66	0xbb8f604c	-0.004375493
67	0x3bccee86	0.00625402
68	0x3c5ecbe1	0.013598413
69	0xbb80e8a6	-0.003933984
70	0x3ca4c837	0.020115001
71	0x3b3614de	0.0027783434
72	0xbbfbe5f0	-0.007687323
73	0xbc0e0635	-0.008668472
74	0xbbfa443a	-0.007637528

dense_1/kernel/transpose f4 [75, 13]
0	0x3daf99bc	0.085742444
1	0xbded08f4	-0.11573973
2	0x3df449a6	0.1192811
3	0xbcefd513	-0.029276406
4	0xbda27041	-0.07931567
5	0x3dc3cd72	0.0956067
6	0x3e69695c	0.22794098
7	0x3dd2e08a	0.10296734
8	0xbe1a140e	-0.15046713
9	0xbccc0203	-0.024903303
10	0x3e5a5cf8	0.21324527
11	0x3e2b23f5	0.16712935
12	0xbdfc1208	-0.12308127
13	0xbc1cf68b	-0.009580265
14	0x3e52932a	0.20563951
15	0x3e07b2c5	0.13251789
16	0x3e7b10da	0.24518147
17	0x3e2b8aaa	0.16752115
18	0x3db3f58a	0.08787067
19	0xbe82c7be	-0.25543016
20	0xbd36fcc2	-0.044674642
21	0xbe74aafa	-0.23893347
22	0x3d6e6130	0.058198154
23	0xbdf07113	-0.11740317
24	0x3e331a5a	0.17490521
25	0x3d51bb0a	0.051203765
26	0x3e84af7b	0.2591513
27	0xbe65d9de	-0.22446391
28	0xbe3abff2	-0.18237284
29	0x3c593938	0.013258271
30	0x3d801dc5	0.06255678
31	0x3e85146c	0.25992143
32	0xbe1e473d	-0.15456863
33	0x3e72ec7e	0.23723027
34	0xbd39a780	-0.045325756
35	0xbd9aa1cb	-0.07550391
36	0x3cca5448	0.024698392
37	0x3c3f0fd6	0.01166149
38	0xbe831191	-0.2559934
39	0x3d27160f	0.04079252
40	0x3e55ac03	0.20866399
41	0xbdc4469d	-0.09583781
42	0xbd84c54e	-0.064829454
43	0x3e6f9dcc	0.23400038
44	0xbe14c588	-0.14528477
45	0x3d8c3063	0.068451665
46	0xbc891584	-0.016733892
47	0x3e789ff8	0.24279773
48	0x3e1ba8a4	0.1520105
49	0x3db9c8e2	0.090715185
50	0xbe4c6d54	-0.1996358
51	0x3e6334b4	0.22188073
52	0x3e08de93	0.13366155
53	0x3e506e94	0.20354682
54	0x3e4a352c	0.19746846
55	0xbe801f3e	-0.25023836
56	0xbe7b7067	-0.24554597
57	0xbde1ac10	-0.110191464
58	0xbe81950c	-0.25309026
59	0x3d9d59fa	0.07683177
60	0xbd66ca4f	-0.05634528
61	0xbe77fd56	-0.24217734
62	0xbbf801f7	-0.0075685936
63	0xbe09ce94	-0.1345771
64	0x3d3869e6	0.045022868
65	0xbe404bbd	-0.18778892
66	0xbde02355	-0.10944239
67	0x3de39512	0.11112417
68	0xbe4ac194	-0.19800407
69	0x3c795a75	0.015219321
70	0x3e4ec485	0.20192154
71	0x3d1ea1ac	0.0387284
72	0x3e4ccc45	0.19999798
73	0xbe06f11c	-0.13177913
74	0xbd1b87cf	-0.037971314
75	0x3ce50309	0.027955549
76	0x3e6cdef7	0.2313193
77	0xbdbd8745	-0.09254316
78	0xbda7a35f	-0.081854574
79	0xbe344f9f	-0.17608498
80	0xbdb730ea	-0.089448765
81	0x3d9ad4c1	0.07560111
82	0x3ce91233	0.02845106
83	0xbd67be41	-0.056577925
84	0x3e7182db	0.23585074
85	0xbe281ea9	-0.16417946
86	0x3e175f9c	0.14782566
87	0xbb55a5de	-0.0032600085
88	0x3dcc96bf	0.0998969
89	0x3d512256	0.051058136
90	0xbe4868ea	-0.19571272
91	0x3e13d54b	0.14436834
92	0xbcc544c9	-0.02408065
93	0x3e4c6f66	0.1996437
94	0xbe14db7d	-0.14536853
95	0x3e3f879b	0.18704073
96	0xbc506345	-0.01271898
97	0x3bdb4cd2	0.0066925073
98	0x3e1402e2	0.14454225
99	0x3e46ad53	0.19402055
100	0xbe323208	-0.17401898
101	0x3c9739a1	0.018460097
102	0xbe302cf1	-0.17204644
103	0xbe148872	-0.14505175
104	0x3e5e5a93	0.21714239
105	0xbac38352	-0.0014916456
106	0xbe22d54a	-0.15901676
107	0xbe776b54	-0.24162036
108	0x3d0dc537	0.034611907
109	0x3e4ea559	0.20180263
110	0x3e5f6dd1	0.21819235
111	0xbe832dcc	-0.25620878
112	0x3a9c568c	0.0011927648
113	0xbd687274	-0.056749776
114	0x3db4f805	0.088363685
115	0x3dfcf0c2	0.123506084
116	0x3d5cca98	0.053904146
117	0xbd8b258e	-0.06794272
118	0x3e3513e9	0.17683376
119	0x3e491135	0.1963547
120	0x3e4bd7a6	0.19906482
121	0x3e194894	0.14969093
122	0x3d5f3aaf	0.054499324
123	0x3e184930	0.14871669
124	0xbe7ae59d	-0.24501653
125	0xbe17f91c	-0.14841121
126	0x3d9c41e3	0.076297544
127	0xbd999615	-0.07499329
128	0xbd9a6e4b	-0.07540568
129	0x3e0a8eb7	0.13531004
130	0x3e759a1a	0.23984566
131	0xbb9f9e2b	-0.00487115
132	0x3d1dd454	0.03853257
133	0x3d9054c2	0.07047416
134	0x3c815fc5	0.015792737
135	0x3e6e4122	0.23267034
136	0xbd7d8d02	-0.061902054
137	0xbe170378	-0.14747417
138	0x3e1e0309	0.15430845
139	0x3e785a30	0.24253154
140	0x3d19d324	0.037554875
141	0x3dd8d364	0.105871946
142	0x3ddf43c7	0.109015994
143	0x3e37c518	0.17946279
144	0xbe2d48b3	-0.16922264
145	0x3e78625f	0.24256276
146	0xbe469a6b	-0.19394843
147	0x3e834500	0.2563858
148	0xbd7946b1	-0.060858432
149	0xbddbdfc3	-0.107360385
150	0xbd5602e6	-0.052248858
151	0xbdaf9eec	-0.08575234
152	0xbd94fbdf	-0.07274603
153	0x3d179421	0.0370065
154	0xbe81a2a3	-0.25319394
155	0xbe756fdb	-0.2396845
156	0xbe3074b6	-0.17232022
157	0x3e11cc2f	0.14238046
158	0x3e814843	0.25250444
159	0x3b012b6d	0.0019709722
160	0x3dfbddae	0.122981414
161	0xbe301b14	-0.1719783
162	0xbdfe10c1	-0.12405539
163	0xbd87fb11	-0.06639684
164	0x3db2ce78	0.08730787
165	0xbe4f68fe	-0.20254895
166	0x3d64549c	0.055744752
167	0xbe56565d	-0.20931382
168	0xbe78c557	-0.24294029
169	0xbe64b852	-0.22335938
170	0x3dc50015	0.09619156
171	0xbcbae8cb	-0.022816082
172	0xbe37759f	-0.17915963
173	0xbe308057	-0.17236458
174	0x3c3456a7	0.011006988
175	0x3dfdc3da	0.12390871
176	0xbe8793ed	-0.26480046
177	0x3d8beff0	0.06832874
178	0xbda75bd5	-0.081718124
179	0xbcd93776	-0.026515704
180	0x3d8dce45	0.069241084
181	0x3e7c32ee	0.24628803
182	0xbb55fc6f	-0.0032651683
183	0xbcce477c	-0.02518057
184	0xbe008ef3	-0.12554531
185	0x3e6646ba	0.22487918
186	0x3e744314	0.23853713
187	0xbd54bb1b	-0.05193625
188	0xbdb1e8ad	-0.086869575
189	0xbde62ad0	-0.112386346
190	0xbe6606f0	-0.22463584
191	0x3dbe6658	0.09296864
192	0x3e020583	0.12697415
193	0x3ce02728	0.027362421
194	0xbccac46c	-0.024751864
195	0xbccb936f	-0.024850575
196	0xbe700a40	-0.2344141
197	0xbe0cffe0	-0.13769484
198	0xbe61c760	-0.22048712
199	0xbe394fca	-0.18096843
200	0xbdfed952	-0.12443794
201	0x3e838d31	0.25693658
202	0xbe73f8ee	-0.23825428
203	0xbe0d2e78	-0.13787258
204	0x3db4aa75	0.088215746
205	0xbd6c2208	-0.057649642
206	0x3debddee	0.11516939
207	0xbe17660e	-0.14785025
208	0xbddbf64a	-0.10740335
209	0x3dd8745b	0.10569068
210	0xbd61d030	-0.055130184
211	0x3d71acbd	0.059002627
212	0xbdf93923	-0.12169101
213	0x3e0d6843	0.13809304
214	0xbe40055c	-0.18752044
215	0x3dfc68e4	0.12324694
216	0x3e28bbb5	0.16477855
217	0xbe7cac21	-0.24675037
218	0xbe2d1bd1	-0.16905142
219	0xbd743a74	-0.059626058
220	0xbd829354	-0.06375757
221	0xbe5062f0	-0.20350242
222	0xbd98d8e4	-0.074632436
223	0xbdbcdd73	-0.092219256
224	0x3e55dc9b	0.20884936
225	0xbe5c265a	-0.21499005
226	0x3c9eec81	0.019399883
227	0x3d62ac56	0.055340134
228	0x3e243c88	0.16038716
229	0x3d8635a2	0.065531984
230	0xbdcfc1d1	-0.101443894
231	0xbe3398d7	-0.17538773
232	0x3d2a28bf	0.041542765
233	0x3d8bb4bb	0.06821581
234	0xbe35d4b2	-0.17756918
235	0x3dc518f6	0.096239015
236	0x3e44f08a	0.19232383
237	0x3e6ec184	0.23316008
238	0x3d960625	0.07325391
239	0x3e5a5c4a	0.21324268
240	0x3e59f58b	0.21285073
241	0x3c9331ce	0.017968085
242	0xbe37d700	-0.1795311
243	0xbd91f035	-0.07125894
244	0xbd14f3e2	-0.036365397
245	0x3e4d97f9	0.20077504
246	0x3d622c4f	0.055218037
247	0x3e566f20	0.20940828
248	0xbdff953c	-0.12479636
249	0xbe61b1fe	-0.22040555
250	0x3e5c30d0	0.21502995
251	0x3e0a1fd4	0.13488704
252	0x3ac71027	0.0015187309
253	0xbd59cbf5	-0.053173024
254	0x3e3c35a6	0.1837984
255	0xbe3d0f13	-0.18462782

dense_2/MatMul_bias f4 [100]
0	0xbb8859df	-0.004161104
1	0xba3b110d	-0.00071360247
2	0xba0fbf15	-0.00054834905
3	0x39c51a3e	0.0003759432
4	0x3bac8a28	0.005265493
5	0x3d0b0bf7	0.033946957
6	0x3ab1d05e	0.0013566127
7	0x3c194751	0.009355382
8	0x39f3171a	0.00046365784
9	0xb63f9500	-2.8547947e-06
10	0x389fea60	7.6253666e-05
11	0x3abbd245	0.0014329633
12	0x3a1554ac	0.0005696516
13	0xba089c83	-0.00052113103
14	0xbc261184	-0.010136012
15	0xbbe1c13b	-0.00688949
16	0xb7ee37a0	-2.8397713e-05
17	0x390a3305	0.00013179712
18	0xb8a0bc00	-7.664412e-05
19	0x3c0adb43	0.008475128
20	0xba7ab880	-0.0009564236
21	0x00000000	0.0
22	0xb8ed7964	-0.000113236514
23	0x00000000	0.0
24	0xbac3472a	-0.0014898528
25	0xbb01cea2	-0.0019807
26	0x00000000	0.0
27	0xb9160e58	-0.00014310458
28	0xbc134eab	-0.008990924
29	0x3c578b7c	0.013155814
30	0x3bd9ccff	0.006646752
31	0x3c9ed25a	0.019387413
32	0x3965cc56	0.00021915263
33	0x00000000	0.0
34	0x3a82b91f	0.0009973383
35	0x00000000	0.0
36	0xbb53d611	-0.0032323638
37	0xbc36622d	-0.011131805
38	0x3d19a900	0.037514687
39	0xba998813	-0.0011713527
40	0x3895857e	7.1297385e-05
41	0xbca5d48b	-0.02024295
42	0x3a12ba00	0.0005597174
43	0xba24ded4	-0.00062893075
44	0xb9a5ce50	-0.00031624967
45	0x39be1d81	0.00036261606
46	0x3c0db2da	0.008648599
47	0x3a1fe31a	0.00060992094
48	0x3c0666b5	0.008203198
49	0xbaba8dd5	-0.0014232943
50	0x3a946142	0.0011320489
51	0xb9c02622	-0.00036649505
52	0x3c641bca	0.013922641
53	0x3a86931e	0.0010267233
54	0xbccd3ced	-0.025053466
55	0xbac84519	-0.0015279382
56	0x3a005ec8	0.0004896936
57	0xbb9cc9f9	-0.004784819
58	0x3c36d434	0.011158992
59	0x3c1634bd	0.009167847
60	0xbc25d059	-0.010120475
61	0xb969115e	-0.00022227081
62	0xb9c1d425	-0.0003696989
63	0x3c15ac57	0.009135327
64	0x3a78f306	0.00094966625
65	0x3b3d08db	0.002884439
66	0xbc69e017	-0.014274619
67	0xb95ff068	-0.00021356496
68	0xb7a6a0a8	-1.9863553e-05
69	0x3ca651b3	0.02030263
70	0x3bbdfc54	0.005797902
71	0x3aa96065	0.0012922405
72	0x3b16102c	0.0022897823
73	0x3ba04fd9	0.004892331
74	0x3b93f6d5	0.0045155087
75	0x3917594a	0.00014433745
76	0x00000000	0.0
77	0x3c5c5531	0.013448046
78	0x00000000	0.0
79	0x3a2eab3f	0.0006663091
80	0x3a13b357	0.00056343287
81	0x3b8a9790	0.0042294934
82	0xba5a627d	-0.0008330716
83	0x3b0556bd	0.002034589
84	0x39690a4f	0.00022224452
85	0xba540d4a	-0.00080891384
86	0x3bc6d5b3	0.0060679554
87	0x3a3012c0	0.0006716661
88	0x00000000	0.0
89	0xbb93b382	-0.004507483
90	0x00000000	0.0
91	0xba41cae1	-0.0007392597
92	0x3a08c168	0.0005216808
93	0x3b7a0493	0.00381497
94	0xbbdf55bd	-0.0068156407
95	0x3b241913	0.002503936
96	0x3cbbd52c	0.022928797
97	0x00000000	0.0
98	0xba69a06a	-0.0008912148
99	0x3b413297	0.0029479617

dense_2/kernel/transpose f4 [100, 75]
0	0x3e10102f	0.14068674
1	0x3d4c1bf6	0.049831353
2	0xbe0119ae	-0.12607452
3	0xbe22ddde	-0.15904948
4	0xbdafde49	-0.085873194
5	0x3d3a233c	0.04544376
6	0xbd592fef	-0.05302423
7	0xbe114f2e	-0.14190361
8	0x3e1593f1	0.14607216
9	0x3dc5a8e1	0.09651352
10	0xbd5eeb78	-0.05442378
11	0xbe2c5297	-0.1682838
12	0xbe095e24	-0.13414818
13	0x3d507b1b	0.050898653
14	0xbd3e435e	-0.046450965
15	0xbddf4da9	-0.109034844
16	0xbd962f98	-0.073332965
17	0xbd9f0cd9	-0.07766122
18	0xbd073e31	-0.033018295
19	0x3b8b2b4c	0.0042471047
20	0x3d2a6468	0.04159966
21	0xbca41c0a	-0.020032901
22	0x3bfd215c	0.007724924
23	0xbe1410f3	-0.1445959
24	0x3e32f74d	0.1747715
25	0x3db87b54	0.09007898
26	0x3d6b6d02	0.057477005
27	0xbe0d5d15	-0.13805039
28	0xbe205cf0	-0.15660453
29	0xbdd26a64	-0.10274199
30	0xbd31a8aa	-0.04337374
31	0x3e191b01	0.14951707
32	0x3df903d9	0.12158937
33	0xbd816303	-0.06317713
34	0x3d0781a7	0.03308263
35	0xbd086375	-0.033297975
36	0x3e0c2c77	0.13688837
37	0x3dd3292f	0.103105895
38	0x3e1c121c	0.15241283
39	0xbcc7d46d	-0.024393285
40	0x3d6c8ab3	0.05774946
41	0x3da73a06	0.08165364
42	0xbc94d2a0	-0.01816684
43	0xbddb5fdb	-0.10711642
44	0xbd2ead2b	-0.042645615
45	0x3d770a0f	0.060312327
46	0xbde12715	-0.109937824
47	0xbd80a982	-0.06282331
48	0x3e18a880	0.14908028
49	0x3d1a9fb4	0.03774996
50	0x3d4691f9	0.048479054
51	0x3e21ab3d	0.15787978
52	0x3d0d7b94	0.03454168
53	0x3be9167b	0.0071132756
54	0xbe36f918	-0.17868459
55	0x3d95e839	0.073196836
56	0xbe1a16bb	-0.15047733
57	0x3dd669c9	0.10469396
58	0xbe307176	-0.17230782
59	0xbdb905b8	-0.09034294
60	0x3ca70700	0.02038908
61	0xbd836d54	-0.06417337
62	0xbd71c239	-0.059023116
63	0x3e226fc7	0.15862952
64	0xbe2db9f8	-0.16965473
65	0x3d2364f5	0.039891202
66	0x3dba0ccc	0.09084472
67	0xbe33dcc6	-0.17564687
68	0x3da7acae	0.08187233
69	0xbe017c21	-0.12645008
70	0xbc7b67c9	-0.0153445685
71	0xbdae02c1	-0.08496619
72	0xbe216b69	-0.1576363
73	0xbe260ff7	-0.16217028
74	0x3e03aa96	0.12858042
75	0x3e0dd1c4	0.1384955
76	0xbd065826	-0.03279891
77	0xbac13200	-0.0014739633
78	0xbdef331e	-0.11679672
79	0xbe3d9758	-0.18514764
80	0xbddcdb7e	-0.10784052
81	0xbd76f59e	-0.060292833
82	0x3cd098e2	0.025463525
83	0x3bd387e2	0.0064554075
84	0x3e077188	0.13226902
85	0xbe269e95	-0.16271432
86	0x3c76d2e6	0.015064931
87	0xbc866b04	-0.01640845
88	0xbdcf1b66	-0.10112648
89	0xbd87b14d	-0.06625614
90	0x3d560e18	0.052259535
91	0xbb59c9c0	-0.0033231825
92	0x3d619539	0.05507395
93	0x3d14e764	0.036353484
94	0x3d465878	0.048424214
95	0xbd7b50bb	-0.061356287
96	0xbdc19598	-0.09452361
97	0x3c8064f6	0.015673142
98	0xbd99b11d	-0.07504485
99	0x3dc1fdae	0.09472214
100	0xbc7eba15	-0.015547295
101	0xbd1efbfd	-0.038814534
102	0xbe2a3767	-0.16622697
103	0xbd7efb4e	-0.06225138
104	0xbc6126a2	-0.013742121
105	0x3dd2afd3	0.10287442
106	0xbc39c8a0	-0.011339337
107	0x3cf8ffae	0.030395355
108	0xbe333dcf	-0.17504047
109	0xbdca394d	-0.098742105
110	0xbdf3bd74	-0.1190137
111	0xbd154527	-0.036442902
112	0xbd602674	-0.05472417
113	0x3d5bea59	0.05369029
114	0xbde8acac	-0.113610595
115	0x3dc2a0ae	0.095033035
116	0xba7a3d29	-0.0009545857
117	0xbe11fa72	-0.14255694
118	0xbd884a92	-0.06654848
119	0x3e1fe539	0.15614785
120	0xbde14936	-0.11000292
121	0xbe0b1914	-0.13583785
122	0x3c3ea060	0.011634916
123	0xbd8fc3a3	-0.070197366
124	0xbc64e5af	-0.013970776
125	0xbc2a415f	-0.010391562
126	0x3de311fa	0.11087413
127	0xbe25879f	-0.16165017
128	0xbde72e57	-0.112881355
129	0xbd53d1f0	-0.051713884
130	0x3e2c1c49	0.16807665
131	0xbd9ada3e	-0.07561158
132	0x3e37dbf9	0.17955007
133	0xbe2f0e07	-0.17095195
134	0x3e1f2e4f	0.15545009
135	0xbdb4b5d8	-0.088237464
136	0xbe15b3d2	-0.14619377
137	0x3e17c25d	0.14820237
138	0xbe09232b	-0.13392322
139	0x3def29c7	0.1167789
140	0x3d3df50b	0.04637627
141	0xbd90e8db	-0.07075664
142	0xbe03c17b	-0.12866776
143	0x3cc444bc	0.023958556
144	0x3dfe08a4	0.12403992
145	0x3e07de7d	0.13268466
146	0x3bf1c954	0.0073787365
147	0x3d8a1b53	0.06743493
148	0xbc0a9982	-0.008459451
149	0x3e381bd9	0.17979373
150	0x3e222a0b	0.1583635
151	0x3de116ae	0.10990654
152	0x3c1d5832	0.009603547
153	0xbc98f339	-0.018670665
154	0x3d1777c4	0.03697945
155	0xbe3532bb	-0.17695133
156	0x3e2ca362	0.168592
157	0x3d65e5b6	0.056127273
158	0x3e376220	0.17908525
159	0x3cc7fc38	0.02441226
160	0x3dda00e3	0.106447004
161	0x3dff4b7f	0.124655716
162	0x3dfc01e0	0.12305045
163	0xbde9917e	-0.114047036
164	0x3ce348b1	0.027744623
165	0x3e268434	0.16261369
166	0xbe1f99e8	-0.15586054
167	0xbd318d16	-0.04334744
168	0x3df8798a	0.12132557
169	0x3b866457	0.004101317
170	0xbd0c6c2a	-0.03428284
171	0xbd249c2c	-0.040188
172	0x3dc5252a	0.09626229
173	0xbe401cae	-0.1876094
174	0xbe1fc446	-0.15602216
175	0xbd83948c	-0.064248174
176	0x3d8ea1fe	0.06964491
177	0xbe28b1b2	-0.16474035
178	0xbdafb97a	-0.08580299
179	0xbddf03a6	-0.10889368
180	0xbbd19a9f	-0.006396606
181	0xbe2f97c8	-0.17147744
182	0x3dd7e6a9	0.10542042
183	0x3d945aef	0.07243907
184	0xbe350b68	-0.17680132
185	0x3d798bf7	0.060924497
186	0x3e047c19	0.12937964
187	0xbe04f3b6	-0.12983593
188	0xbd0b59eb	-0.0340213
189	0xbcc03a78	-0.02346538
190	0xbd012c93	-0.03153665
191	0x3e34d292	0.17658451
192	0x3e0ac3ae	0.13551208
193	0xbe22b9a8	-0.15891135
194	0xbce7d479	-0.028299557
195	0xbe3144a1	-0.17311336
196	0xbd520f0b	-0.051283877
197	0x3dc8bc45	0.098015346
198	0xbd6e9007	-0.058242824
199	0xbe44f762	-0.19234994
200	0xbe15f3ab	-0.14643733
201	0x3db7be0e	0.08971797
202	0x3dd886c4	0.105725795
203	0xbe2a817e	-0.1665096
204	0x3d2d0510	0.042241156
205	0x3c0af9b5	0.008482386
206	0x3d340c88	0.043957263
207	0xbe2a9676	-0.16658959
208	0x3e30e7c6	0.17275915
209	0x3c7dcac0	0.015490234
210	0xbe0146f2	-0.1262472
211	0xbcb730a6	-0.022362065
212	0xbe1954df	-0.14973782
213	0xbe130f13	-0.14361219
214	0x3d719bad	0.058986355
215	0x3d5af279	0.053453896
216	0x3df961e8	0.12176877
217	0x3e1db68d	0.15401669
218	0x3e2f5752	0.17123154
219	0xbdb8c581	-0.09022046
220	0xbdb07458	-0.08615941
221	0x3dbba1e3	0.09161737
222	0x3cb8ec6a	0.022573669
223	0xbe19e17d	-0.15027423
224	0xbd5656d5	-0.052328903
225	0x3de700df	0.11279463
226	0x3dfbdf53	0.12298455
227	0x3ddecc29	0.10878784
228	0x3e2d7d05	0.16942222
229	0x3d5b9d38	0.053616732
230	0x3e3a3f6f	0.1818826
231	0xbd10503b	-0.035232764
232	0xbe3c6350	-0.1839726
233	0xbd997638	-0.074932516
234	0xbd79c2d9	-0.060976837
235	0x3e3b99a4	0.18320328
236	0xbd4324a1	-0.047642354
237	0xbe339148	-0.17535889
238	0xbd974853	-0.073868416
239	0x3dcac3b1	0.099006064
240	0x3d6757c6	0.05648019
241	0xbdb2d4bb	-0.08731981
242	0x3ca959f3	0.020672774
243	0x3e0981f4	0.1342848
244	0xbe30818b	-0.17236917
245	0x3e2e0019	0.16992225
246	0xbe1a23ec	-0.15052766
247	0x3df64140	0.12024164
248	0x3e220a38	0.1582421
249	0x3d7b308e	0.061325602
250	0xbd17688e	-0.036964945
251	0xbd4f41de	-0.050599925
252	0x3e29b205	0.16571815
253	0xbda32790	-0.0796653
254	0xbd959468	-0.07303697
255	0x3e3bbf93	0.18334799

dense_3/MatMul_bias f4 [2]
0	0x3a314c48	0.0006763381
1	0xba314c34	-0.00067633693

dense_3/kernel/transpose f4 [2, 100]
0	0x3e2fb8ea	0.17160383
1	0xbd8ba627	-0.068188004
2	0x3b76e58f	0.0037673449
3	0xbe1cfe8a	-0.15331474
4	0x3d85c7cb	0.06532248
5	0x3e88fb8f	0.26754424
6	0x3dba9207	0.09109884
7	0x3dd21de1	0.10259605
8	0x3cb7a107	0.022415651
9	0x3e224aa2	0.15848783
10	0xbe253f09	-0.16137327
11	0xbe3a1e69	-0.18175663
12	0xbe4d2636	-0.20034108
13	0xbe541841	-0.20712377
14	0xbcf8325e	-0.030297454
15	0xbe51cfb4	-0.20489389
16	0x3d2cdf38	0.042205065
17	0x3e252e90	0.16131043
18	0xbd9d4651	-0.076794274
19	0xbd4da16a	-0.050202765
20	0x3e799a1e	0.24375197
21	0xbdcf6c34	-0.1012806
22	0xbe0d69a0	-0.13809824
23	0xbe017b40	-0.12644672
24	0xbe20f698	-0.15719068
25	0xbbb9fb66	-0.005675721
26	0xbc9255d0	-0.017863184
27	0x3cb583ef	0.022157637
28	0xbda85f8b	-0.082213484
29	0xbe06a741	-0.1314974
30	0x3dcfaf58	0.10140866
31	0xbe60ef4d	-0.21966286
32	0x3e08b6e7	0.13351022
33	0xbe52d33a	-0.20588389
34	0xbc517222	-0.012783559
35	0xbc09ad80	-0.008403182
36	0xbd4c32b3	-0.049853038
37	0xbe609f07	-0.21935664
38	0x3e69578a	0.227873
39	0xba0e901d	-0.00054383447
40	0x3e044d08	0.1292001
41	0xbe71535e	-0.23566958
42	0x3dcb70a8	0.09933597
43	0xbdcb3d58	-0.0992381
44	0x3e1495fd	0.14510341
45	0xbe3239ca	-0.17404857
46	0xbe1b8fd2	-0.15191582
47	0xbe4e17a6	-0.20126209
48	0xbe0f1fb1	-0.13976933
49	0x3dd6c5c7	0.10486942
50	0xbe66e34b	-0.22547643
51	0xbe2ce517	-0.16884266
52	0x3e83d142	0.2574559
53	0xbe805cd6	-0.25070828
54	0x3e3b9e59	0.18322124
55	0x3d1bd130	0.038041294
56	0x3e44077e	0.19143483
57	0xbcd8e5a8	-0.026476696
58	0xbd253afd	-0.04033946
59	0xbe8afe2e	-0.2714705
60	0xbdd1a860	-0.10237193
61	0x3d93ddea	0.07220061
62	0xbe786707	-0.24258052
63	0x3c623ade	0.01380798
64	0x3b55348d	0.0032532543
65	0x3dba2385	0.09088806
66	0x3dde5e6d	0.10857854
67	0xbde08b16	-0.109640285
68	0xbd3a6d35	-0.045514304
69	0x3c6b469c	0.014360096
70	0x3df494cd	0.11942444
71	0x3e34aac6	0.1764327
72	0x3e220205	0.15821083
73	0xbc036b78	-0.008021228
74	0x3d24745a	0.040150024
75	0xbe19ab3d	-0.15006728
76	0xbe3c8ae1	-0.18412353
77	0xbe0d8fe1	-0.13824417
78	0x3e012164	0.12610394
79	0x3dcfb570	0.10142028
80	0x3cc1c2e9	0.02365251
81	0x3db9b95a	0.09068556
82	0x3d6a999f	0.05727541
83	0xbe42a062	-0.19006494
84	0xbd4e89a7	-0.050424244
85	0x3e6e2b2c	0.23258656
86	0xbe23ba69	-0.15989079
87	0xbe1167d2	-0.1419976
88	0xbdb3d488	-0.087807715
89	0xbe4451e7	-0.19171868
90	0xbe4c58d0	-0.19955754
91	0x3dce75ef	0.10081088
92	0xbd2acb15	-0.04169758
93	0x3df5aff9	0.11996455
94	0x3e52bdd0	0.2058022
95	0xbe1c890f	-0.15286659
96	0xbe2a3884	-0.16623122
97	0xbe2f5bd8	-0.1712488
98	0xbe42c608	-0.19020855
99	0xbd1c9b7d	-0.038234223
100	0x3d7954db	0.06087194
101	0xbe66304d	-0.22479363
102	0xbe3e04ee	-0.18556568
103	0xbe32e0e1	-0.17468597
104	0xbcf29ede	-0.02961677
105	0xbe9a7144	-0.3016454
106	0xbe0b0c32	-0.13578871
107	0xbe5b496c	-0.21414727
108	0xbd16fbbb	-0.036861163
109	0xbc14276c	-0.009042602
110	0xbe1d8f09	-0.15386595
111	0x3e0eafec	0.13934296
112	0xbe3ddaab	-0.18540446
113	0x3e34a0ed	0.17639513
114	0x3e27bdbd	0.16380973
115	0x3d83d9fa	0.0643806
116	0x3e6d506e	0.23175213
117	0x3e4780fa	0.19482794
118	0xbdf14cba	-0.117822126
119	0xbe63e868	-0.22256625
120	0xbe871df1	-0.2639003
121	0x3bcca0c0	0.006244749
122	0xbe266fd8	-0.16253603
123	0xbdd3f6dc	-0.10349819
124	0xbdc209fe	-0.09474562
125	0xbd6f4704	-0.058417335
126	0xbd95950a	-0.073038176
127	0xbe117c33	-0.14207534
128	0x3d70f3a2	0.058826096
129	0x3e3d6442	0.18495277
130	0xbdd5da51	-0.10442031
131	0x3e91d3dc	0.28481948
132	0x3de2df4b	0.11077746
133	0x3dc5676c	0.09638867
134	0xbe06244a	-0.1309978
135	0xbe6ce19b	-0.23132937
136	0xbe20f6dc	-0.1571917
137	0xbd38a57d	-0.045079697
138	0xbe955198	-0.29163814
139	0x3ba9e6c6	0.005184981
140	0x3a7e8386	0.00097089296
141	0x3e710eba	0.23540774
142	0x3e09c702	0.13454822
143	0xbdf47c5a	-0.11937781
144	0xbe3213d1	-0.17390372
145	0xbe0ecefb	-0.13946144
146	0x3e393c86	0.18089494
147	0xbe001c95	-0.12510903
148	0xbd38ac4c	-0.04508619
149	0x3e07e152	0.13269547
150	0xbd0b0201	-0.033937458
151	0xbe3fbece	-0.1872513
152	0xbe8f7d9f	-0.2802553
153	0x3e2f3abb	0.17112248
154	0xbd3d44ca	-0.04620818
155	0xbe2dc11d	-0.16968198
156	0x3e132c4c	0.14372367
157	0x3c091cb0	0.008368656
158	0x3e714360	0.23560858
159	0x3df6b6bc	0.120465726
160	0x3d2007fe	0.039070122
161	0xbe07120d	-0.1319048
162	0xbdc1ed97	-0.09469145
163	0xbe141595	-0.14461358
164	0x3e5b050a	0.21388641
165	0xbd9220a9	-0.07135136
166	0xbe3b36d4	-0.18282634
167	0xbe1470aa	-0.14496103
168	0x3d1716b1	0.036886875
169	0xbe5e9845	-0.21737774
170	0x3b8f427d	0.0043719397
171	0x3d572c29	0.05253235
172	0xbe82160a	-0.2540744
173	0x3db2b523	0.08725955
174	0xbd90b405	-0.07065586
175	0xbdd84d6b	-0.10561641
176	0x3d32a2e0	0.04361236
177	0x3c2d4f03	0.01057792
178	0xbd8556ec	-0.0651072
179	0x3e741416	0.23835787
180	0xbd9f3ac9	-0.07774884
181	0x3e1abd9b	0.15111391
182	0x3d765572	0.06014008
183	0xbca6c89c	-0.02035933
184	0x3cd514da	0.02601092
185	0x3e3d5b78	0.18491924
186	0x3e808b1d	0.25106135
187	0xbe2c5f77	-0.16833292
188	0x3d6ce520	0.057835698
189	0xbdc0711f	-0.09396576
190	0xbd392e24	-0.04521002
191	0x3e1950cf	0.14972232
192	0x3c2ceadf	0.0105540445
193	0x3d790763	0.06079806
194	0xbe5e1c59	-0.21690501
195	0x3d34cbe5	0.04413976
196	0x3e423da8	0.18968832
197	0x3d0bce00	0.034132004
198	0xbd0af228	-0.033922344
199	0x3d8bbd37	0.06823199
